…
	feat length per sequence: 300, label length per sequence: 60

Loading test dataset:
	start to get fetch raw audio data
	Data frames shape: [n_samples, channel, audio_samples]:(1000, 4, 144000)

	Label shape:(1000, 60, 42)

	files number: 100, classes number:14
	number of frames per file: 0, mel bins length: 64, channels number: 4
	feat length per sequence: 300, label length per sequence: 60

----------------------------------------------------------------
        Layer (type)               Output Shape         Param #
================================================================
            Conv1d-1           [-1, 128, 48000]           1,664
       BatchNorm1d-2           [-1, 128, 48000]             256
              ReLU-3           [-1, 128, 48000]               0
            Conv1d-4           [-1, 128, 48000]          49,280
       BatchNorm1d-5           [-1, 128, 48000]             256
              ReLU-6           [-1, 128, 48000]               0
         MaxPool1d-7           [-1, 128, 16000]               0
            Conv1d-8           [-1, 128, 16000]          49,280
       BatchNorm1d-9           [-1, 128, 16000]             256
             ReLU-10           [-1, 128, 16000]               0
        MaxPool1d-11            [-1, 128, 5333]               0
           Conv1d-12            [-1, 256, 5333]          98,560
      BatchNorm1d-13            [-1, 256, 5333]             512
             ReLU-14            [-1, 256, 5333]               0
        MaxPool1d-15            [-1, 256, 1777]               0
           Conv1d-16            [-1, 256, 1777]         196,864
      BatchNorm1d-17            [-1, 256, 1777]             512
             ReLU-18            [-1, 256, 1777]               0
        MaxPool1d-19             [-1, 256, 592]               0
           Conv1d-20             [-1, 256, 592]         196,864
      BatchNorm1d-21             [-1, 256, 592]             512
             ReLU-22             [-1, 256, 592]               0
        MaxPool1d-23             [-1, 256, 197]               0
          Dropout-24             [-1, 256, 197]               0
           Conv1d-25             [-1, 128, 197]          98,432
      BatchNorm1d-26             [-1, 128, 197]             256
             ReLU-27             [-1, 128, 197]               0
        MaxPool1d-28              [-1, 128, 65]               0
AdaptiveAvgPool1d-29              [-1, 128, 60]               0
              GRU-30  [[-1, 60, 256], [-1, 2, 128]]               0
              GRU-31  [[-1, 60, 256], [-1, 2, 128]]               0
           Linear-32                  [-1, 128]          32,896
  TimeDistributed-33              [-1, 60, 128]               0
          Dropout-34              [-1, 60, 128]               0
           Linear-35                   [-1, 42]           5,418
  TimeDistributed-36               [-1, 60, 42]               0
             Tanh-37               [-1, 60, 42]               0
================================================================
Total params: 731,818
Trainable params: 731,818
Non-trainable params: 0
----------------------------------------------------------------
Input size (MB): 2.20
Forward/backward pass size (MB): 340.34
Params size (MB): 2.79
Estimated Total Size (MB): 345.33
----------------------------------------------------------------
Epoch [1/50], train loss : 0.0225
…
