…
	feat length per sequence: 300, label length per sequence: 60

Loading test dataset:
	start to get fetch raw audio data
	Data frames shape: [n_samples, channel, audio_samples]:(1000, 4, 144000)

	Label shape:(1000, 60, 42)

	files number: 100, classes number:14
	number of frames per file: 0, mel bins length: 64, channels number: 4
	feat length per sequence: 300, label length per sequence: 60

----------------------------------------------------------------
        Layer (type)               Output Shape         Param #
================================================================
            Conv1d-1           [-1, 128, 48000]           1,664
       BatchNorm1d-2           [-1, 128, 48000]             256
              ReLU-3           [-1, 128, 48000]               0
            Conv1d-4           [-1, 128, 48000]          49,280
       BatchNorm1d-5           [-1, 128, 48000]             256
              ReLU-6           [-1, 128, 48000]               0
         MaxPool1d-7           [-1, 128, 16000]               0
            Conv1d-8           [-1, 128, 16000]          49,280
       BatchNorm1d-9           [-1, 128, 16000]             256
             ReLU-10           [-1, 128, 16000]               0
        MaxPool1d-11            [-1, 128, 5333]               0
           Conv1d-12            [-1, 256, 5333]          98,560
      BatchNorm1d-13            [-1, 256, 5333]             512
             ReLU-14            [-1, 256, 5333]               0
        MaxPool1d-15            [-1, 256, 1777]               0
           Conv1d-16            [-1, 256, 1777]         196,864
      BatchNorm1d-17            [-1, 256, 1777]             512
             ReLU-18            [-1, 256, 1777]               0
        MaxPool1d-19             [-1, 256, 592]               0
           Conv1d-20             [-1, 256, 592]         196,864
      BatchNorm1d-21             [-1, 256, 592]             512
             ReLU-22             [-1, 256, 592]               0
        MaxPool1d-23             [-1, 256, 197]               0
          Dropout-24             [-1, 256, 197]               0
           Conv1d-25             [-1, 128, 197]          98,432
      BatchNorm1d-26             [-1, 128, 197]             256
             ReLU-27             [-1, 128, 197]               0
        MaxPool1d-28              [-1, 128, 65]               0
AdaptiveAvgPool1d-29              [-1, 128, 60]               0
        LayerNorm-30              [-1, 60, 128]             256
           Linear-31              [-1, 60, 512]          66,048
            Swish-32              [-1, 60, 512]               0
          Dropout-33              [-1, 60, 512]               0
           Linear-34              [-1, 60, 128]          65,664
          Dropout-35              [-1, 60, 128]               0
      FeedForward-36              [-1, 60, 128]               0
          PreNorm-37              [-1, 60, 128]               0
            Scale-38              [-1, 60, 128]               0
        LayerNorm-39              [-1, 60, 128]             256
           Linear-40              [-1, 60, 512]          65,536
           Linear-41             [-1, 60, 1024]         131,072
        Embedding-42               [-1, 60, 64]          65,600
           Linear-43              [-1, 60, 128]          65,664
          Dropout-44              [-1, 60, 128]               0
        Attention-45              [-1, 60, 128]               0
          PreNorm-46              [-1, 60, 128]               0
        LayerNorm-47              [-1, 60, 128]             256
        Transpose-48              [-1, 128, 60]               0
           Conv1d-49              [-1, 512, 60]          66,048
              GLU-50              [-1, 256, 60]               0
           Conv1d-51              [-1, 256, 60]           8,192
  DepthWiseConv1d-52              [-1, 256, 60]               0
      BatchNorm1d-53              [-1, 256, 60]             512
            Swish-54              [-1, 256, 60]               0
           Conv1d-55              [-1, 128, 60]          32,896
        Transpose-56              [-1, 60, 128]               0
          Dropout-57              [-1, 60, 128]               0
ConformerConvModule-58              [-1, 60, 128]               0
        LayerNorm-59              [-1, 60, 128]             256
           Linear-60              [-1, 60, 512]          66,048
            Swish-61              [-1, 60, 512]               0
          Dropout-62              [-1, 60, 512]               0
           Linear-63              [-1, 60, 128]          65,664
          Dropout-64              [-1, 60, 128]               0
      FeedForward-65              [-1, 60, 128]               0
          PreNorm-66              [-1, 60, 128]               0
            Scale-67              [-1, 60, 128]               0
        LayerNorm-68              [-1, 60, 128]             256
   ConformerBlock-69              [-1, 60, 128]               0
           Linear-70                  [-1, 128]          16,512
  TimeDistributed-71              [-1, 60, 128]               0
          Dropout-72              [-1, 60, 128]               0
           Linear-73                   [-1, 42]           5,418
  TimeDistributed-74               [-1, 60, 42]               0
             Tanh-75               [-1, 60, 42]               0
================================================================
Total params: 1,415,658
Trainable params: 1,415,658
Non-trainable params: 0
----------------------------------------------------------------
Input size (MB): 2.20
Forward/backward pass size (MB): 404.76
Params size (MB): 5.40
Estimated Total Size (MB): 412.36
----------------------------------------------------------------
Epoch [1/50], train loss : 0.0251
…
